model/first_model.pth (torch, 448823 bytes, 5 tensors)

layer_stack.0.weight f4 [211, 315]
0.04271515 0.041887145 -0.011929473 0.05149658 -0.015888501 0.01226109 -0.020574672 0.029658094
0.05408402 -0.038550574 0.043798562 0.012825296 0.044915617 0.004403571 0.02241738 -0.008284848
0.03708329 0.0036988296 -0.030144572 0.01815254 -0.03030639 -0.0061201034 -0.022184772 0.037319817
-0.050323002 -0.022009898 -0.013725412 -0.02531895 0.0036134615 -0.049143024 0.053411216 -0.05060799
0.04388771 0.0120403515 -0.018558588 0.033256177 0.008886931 0.043812606 -0.0017687518 -0.02662
0.008879042 -0.02242303 0.023712639 0.043540556 0.007440956 -0.024631884 0.020501418 -0.0043791826
0.026311226 -0.037448473 -0.055775024 -0.026481578 -0.049963392 0.031907834 0.010119066 0.023338292
-0.011818143 -0.0032359997 0.044094983 -0.0471378 -0.006096112 -0.044189125 0.014976827 -0.026419103
0.0172646 -0.01947664 0.029137034 -0.039956354 -0.03360322 -0.033197224 0.05107939 0.020095943
0.047850136 -0.049614213 -0.051448528 -0.052627705 -0.042404223 0.02844974 0.021978764 0.047642525
-0.025807202 -0.041383877 0.031208292 -0.023151848 0.035192233 -0.01859914 0.026660658 -0.040840045
-0.025089279 0.013911665 0.0059164036 -0.018712522 0.027687315 0.03589192 -0.04085889 -0.036619406
0.044793025 -0.017758828 -0.02002996 -0.060935188 -0.0336764 0.007145894 -0.0074063977 -0.045926668
0.0013216361 -0.04203658 -0.053879675 -0.046630513 -0.0527055 -0.034521103 0.05449371 0.0092006875
0.016008003 -0.052550808 -0.049904097 -0.02070093 -0.00538426 -0.04801374 -0.028693916 -0.033731155
-0.0069538425 -0.029422408 -0.008657174 -0.038199726 -0.044326596 -0.029506005 -0.024569668 -0.048454165
0.04724243 -0.023663037 0.04804358 0.011380242 -0.050225608 0.03324904 -0.020048363 -0.021597978
-0.042632814 -0.06294397 0.016120512 -0.014425695 0.019182727 -0.057219952 0.036262497 -0.049038924
-0.009729043 0.0032913615 0.029949665 0.043886825 0.04620795 -0.044695023 0.01017216 -0.022449575
-0.006164207 -0.04440557 0.0455239 -0.041756243 0.029650353 0.017255763 0.018903697 -0.0349437
0.05121362 0.0060060467 0.0061709764 -0.050017707 0.018628187 -0.008471619 -0.028996514 0.04425404
0.010701756 -0.03059163 -0.028755395 -0.0030080106 0.030160781 -0.016568765 -0.032743488 -0.02108072
-0.046114873 0.020093966 0.040877774 -0.06004197 0.0023838456 0.019676276 0.008188154 -0.029667495
0.019272773 0.023361113 0.015160851 -0.0099007785 -0.01983537 -0.0053312345 -0.021895519 -0.017179634
0.032727864 0.048421685 -0.015193988 -0.018051745 -0.0058880895 -0.010869858 0.011534838 0.015175634
-0.051174473 -0.026444111 0.03778334 0.01609208 -0.0057888483 -0.041703526 -0.043896895 -0.058755837
-0.020077055 0.014289451 0.028192302 0.019803848 -0.05842487 -0.04248719 -0.009617098 0.04677034
0.00012383175 -0.02016914 0.020575942 -0.02424512 -0.042206403 0.04182598 -0.03335317 -0.018290391
-0.056907356 0.03203119 0.038196415 0.015222122 -0.04011315 -0.06334157 -0.045888342 0.033821795
0.01563065 0.04226814 0.027569702 0.0092000775 -0.0005517565 -0.04748486 -0.05898529 -0.057288878
0.022929505 -0.039486278 -0.011339299 -0.050332185 -0.02425438 -0.039656606 -0.04715638 0.011075581
-0.021898827 0.034783352 -0.025265338 -0.042926904 -0.019772094 -0.041972324 -0.017402148 -0.060877208
00000000: 15f6 2e3d db91 2b3d d673 43bc 14ee 523d
00000010: 9a28 82bc bde2 483c 378c a8bc 88f5 f23c
00000020: 3587 5d3d 35e7 1dbd 1f66 333d 3121 523c
00000030: 70f9 373d d54b 903b a7a4 b73c 2cbd 07bc
00000040: a6e4 173d 1068 723b c0f1 f6bc a3b4 943c
00000050: 1b45 f8bc 268b c8bb d7bc b5bc aadc 183d
00000060: 7e1f 4ebd 1a4e b4bc 8de0 60bc b069 cfbc
00000070: d3cf 6c3b 324a 49bd b8c5 5a3d 534a 4fbd
00000080: 99c3 333d e544 453c 2e08 98bc a137 083d
00000090: 7e9a 113c d974 333d 76d5 e7ba 3012 dabc
000000a0: 6779 113c 81b0 b7bc 0241 c23c 9557 323d
000000b0: 43d3 f33b cec8 c9bc 97f2 a73c 3f7f 8fbb
000000c0: a48a d73c 9263 19bd 5a74 64bd e5ef d8bc
000000d0: 6aa6 4cbd cab1 023d 70ca 253c f22f bf3c
000000e0: e2a0 41bc 1113 54bb f19c 343d 9113 41bd
000000f0: e5c1 c7bb a8ff 34bd 5e61 753c e06c d8bc
00000100: 7e6e 8d3c 798d 9fbc cab0 ee3c 46a9 23bd
00000110: 88a3 09bd d0f9 07bd 9f38 513d 3fa0 a43c
00000120: 81fe 433d 4638 4bbd b1bb 52bd 2690 57bd
00000130: 0db0 2dbd 6e0f e93c cf0c b43c cf24 433d
00000140: a069 d3bc 2482 29bd 88a8 ff3c f2a8 bdbc
00000150: bb25 103d 395d 98bc 7467 da3c e447 27bd
00000160: 0888 cdbc c1ed 633c 64de c13b 014b 99bc
00000170: 82d0 e23c 6803 133d a75b 27bd 3bfe 15bd
00000180: e478 373d f67a 91bc df15 a4bc 2d97 79bd
00000190: 44f0 09bd 1b28 ea3b 5eb1 f2bb 9a1d 3cbd
000001a0: c03a ad3a 8d2e 2cbd efb0 5cbd a3ff 3ebd
000001b0: b9e1 57bd 0066 0dbd cc34 5f3d 7bbe 163c
000001c0: 3723 833c 843f 57bd 3d68 4cbd ff94 a9bc
000001d0: 726e b0bb 0eaa 44bd 810f ebbc ae29 0abd
000001e0: 0fdd e3bb 4307 f1bc d2d6 0dbc 5177 1cbd
000001f0: ce8f 35bd 94b6 f1bc 5446 c9bc e077 46bd
00000200: 4781 413d fcd8 c1bc 58c9 443d 3274 3a3c
00000210: 5eb9 4dbd 2530 083d 773c a4bc 3eee b0bc
00000220: bf9f 2ebd c5e8 80bd 2a0f 843c c059 6cbc
00000230: 1825 9d3c 785f 6abd fc87 143d 0add 48bd
00000240: 9066 1fbc e2b3 573b 0059 f53c acc2 333d
00000250: 8c44 3d3d 2112 37bd 22a9 263c 2ce8 b7bc
00000260: 1efd c9bb 9de2 35bd 4577 3a3d 9808 2bbd
00000270: 4ce5 f23c f55b 8d3c eddb 9a3c 2021 0fbd
00000280: 5fc5 513d 5fce c43b e735 ca3b 5edf 4cbd
00000290: 249a 983c 8ccc 0abc 198a edbc b943 353d
000002a0: 6b56 2f3c 4c9b fabc 6f90 ebbc 0b22 45bb
000002b0: be13 f73c 38bb 87bc 091e 06bd 79b1 acbc
000002c0: f3e2 3cbd 1a9c a43c 746f 273d 92ee 75bd
000002d0: 4b3a 1c3b 2430 a13c 9b27 063c 3f09 f3bc
000002e0: efe1 9d3c ce5f bf3c 3865 783c e036 22bc
000002f0: c97d a2bc a3b1 aebb 3b5e b3bc 4ebc 8cbc
00000300: a70d 063d d155 463d 34f0 78bc 41e1 93bc
00000310: e0f0 c0bb 7d17 32bc 9efc 3c3c 39a3 783c
00000320: 539c 51bd 52a1 d8bc b4c2 1a3d 8ad3 833c
00000330: 61b0 bdbb 51d1 2abd 3bcd 33bd f6a9 70bd
00000340: a378 a4bc 4d1e 6a3c 8bf3 e63c ae3b a23c
00000350: eb4e 6fbd 0c07 2ebd 0891 1dbc 4292 3f3d
00000360: d5d8 0139 c139 a5bc e18e a83c b49d c6bc
00000370: 9fe0 2cbd b851 2b3d 559d 08bd bbd5 95bc
00000380: b017 69bd 2333 033d d873 1c3d 3566 793c
00000390: b04d 24bd 3ab9 81bd 6af5 3bbd b988 0a3d
000003a0: d90b 803c 5b21 2d3d dbd9 e13c ecbb 163c
000003b0: c0a3 10ba 7c7f 42bd 8f9a 71bd bea7 6abd
000003c0: a8d6 bb3c 5dbc 21bd 78c8 39bc 1f29 4ebd
000003d0: 1fb1 c6bc f76e 22bd 0c27 41bd 5b76 353c
000003e0: 2b65 b3bc fd78 0e3d 41f9 cebc 1fd4 2fbd
000003f0: 16f9 a1bc 2ceb 2bbd f38e 8ebc 615a 79bd

layer_stack.0.bias f4 [211]
-0.0089529455 0.062817484 -0.10685797 -0.019458883 -0.0057659824 -0.066479124 0.034891766 -0.05614669
-0.024811411 0.0074972976 -0.038161594 -0.059099454 -0.05335718 -0.048819304 -0.08081565 0.06198283
0.08221062 0.022380138 0.063494086 -0.018898608 0.03428665 0.037474476 -0.0063531166 -0.010343546
0.051870957 -0.00896537 -0.03142958 0.057532705 0.041048504 0.018291013 0.051655095 0.00854976
-0.053355638 -0.052148286 -0.0914201 0.058677394 0.02941092 0.038892817 0.068705134 0.030682418
0.034572165 -0.0414246 0.01107015 0.0018930594 -0.042567693 0.013094654 0.008037797 -0.04820638
-0.03940336 0.03323069 -0.09122134 -0.031336587 -0.02973005 -0.0123323435 -0.020506993 -0.0088191535
0.056560736 -0.031876016 -0.0148284035 -0.057513658 -0.039867617 0.027086085 0.002862845 0.046277672
0.019652868 0.07586966 -0.08673611 0.016389184 -0.02104432 0.003519249 -0.013705646 0.06429117
0.04312749 0.02857593 -0.055580415 0.021089649 -0.011704229 -0.017940223 0.036693197 -0.018468406
-0.05968062 0.04101994 -0.016147925 0.026805153 0.0049266913 0.010382337 0.0660926 0.035347145
-0.01717427 -0.04126132 -0.03623572 0.015304765 0.05902182 -0.0042062965 -0.03537788 0.07793729
-0.06299216 -0.0017400709 0.061912294 -0.009712688 -0.0045919097 0.06864521 0.00050210714 0.014873564
-0.049087748 -0.048303477 -0.026116345 -0.019090673 0.07630264 0.0029984694 0.0030870961 0.007532888
0.027671756 0.027445404 -0.040225822 0.010268939 -0.02261653 -0.04751933 0.0050935475 -0.021737643
0.0002924853 -0.045332067 -0.02772156 0.057288367 0.007074948 -0.009387488 0.018337104 -0.008764168
-0.009151327 0.04497387 -0.05899236 0.017616479 0.043201458 0.03281718 -0.061895907 0.066688776
0.083186656 -0.049558707 -0.0064277546 0.004507222 0.055940468 0.0210028 0.05307638 0.011603418
0.027006019 -0.010087151 -0.0264203 -0.046565834 0.07267925 -0.036220524 0.01012283 -0.0126273185
-0.005702909 0.056691863 0.06303934 -0.020392602 -0.025228726 -0.018211383 0.07606941 0.031077176
-0.038959015 -0.057303727 0.038153555 -0.021377431 0.035744693 0.0079503935 -0.02386067 -0.07627073
-0.048770342 -0.034997433 -0.03297346 0.024746208 -0.009409477 0.023123637 0.010057566 -0.01111663
-0.030709423 -0.024968881 0.06479232 0.014491651 0.02007048 0.061311457 -0.042889904 0.008532195
-0.09568524 -0.005166732 -0.056351032 -0.006290121 0.05937528 -0.044710714 0.07783579 -0.07923621
0.064689755 0.042867463 -0.0117379995 0.010388141 -0.016133353 -0.03574408 -0.09307927 -0.012679227
0.061078276 -0.013501871 -0.00599637 -0.01720505 0.002694875 0.06424651 0.030502336 0.036858913
0.0061762235 0.029823877 -0.04266326
00000000: 60af 12bc 74a6 803d 5ad8 dabd 3c68 9fbc
00000010: 91f0 bcbb 3526 88bd abea 0e3d 12fa 65bd
00000020: 4d41 cbbc e4ab f53b 554f 1cbd 4512 72bd
00000030: 0f8d 5abd c0f6 47bd ad82 a5bd b5e1 7d3d
00000040: 0b5e a83d 8d56 b73c 3009 823d 41d1 9abc
00000050: 2970 0c3d d67e 193d ce2d d0bb fa77 29bc
00000060: a476 543d 7de3 12bc 4ebc 00bd 6aa7 6b3d
00000070: 7a22 283d 09d7 953c 4b94 533d 4b14 0c3c
00000080: 718b 5abd 7199 55bd 763a bbbd b557 703d
00000090: 2bef f03c 134e 1f3d 47b5 8c3d b259 fb3c
000000a0: 8b9b 0d3d d7ac 29bd 935f 353c 8820 f83a
000000b0: 765b 2ebd f68a 563c f7b0 033c 0e74 45bd
000000c0: 6b65 21bd e71c 083d 41d2 babd cb5a 00bd
000000d0: 6f8c f3bc 990d 4abc 48fe a7bc 367e 10bc
000000e0: 3bac 673d 6d90 02bd d5f2 72bc 7193 6bbd
000000f0: 3a4c 23bd a3e3 dd3c 929e 3b3b a88d 3d3d
00000100: 0dff a03c 8d61 9b3d b4a2 b1bd 9c42 863c
00000110: 2365 acbc 33a3 663b a58d 60bc 17ab 833d
00000120: 73a6 303d 1218 ea3c 4aa8 63bd 33c4 ac3c
00000130: 18c3 3fbc 60f7 92bc 9b4b 163d 0e4b 97bc
00000140: aa73 74bd 8604 283d a748 84bc 7b96 db3c
00000150: 1570 a13b ad1a 2a3c 8f5b 873d 2bc8 103d
00000160: 0eb1 8cbc a101 29bd e86b 14bd d6c0 7a3c
00000170: ddc0 713d f9d4 89bb 65e8 10bd 969d 9f3d
00000180: 0902 81bd 1713 e4ba bf97 7d3d f721 1fbc
00000190: bb77 96bb dc95 8c3d d79f 033a 40b0 733c
000001a0: 3c10 49bd ded9 45bd f2f1 d5bc 0b64 9cbc
000001b0: 8f44 9c3d f881 443b e150 4a3b 72d6 f63b
000001c0: e1af e23c 2fd5 e03c d5c3 24bd 0d3f 283c
000001d0: 4d46 b9bc a1a3 42bd c6e7 a63b 2413 b2bc
000001e0: b658 9939 1eae 39bd 5318 e3bc 35a7 6a3d
000001f0: f7d4 e73b facd 19bc b237 963c 9697 0fbc
00000200: 73ef 15bc 8536 383d f9a1 71bd 6f50 903c
00000210: 03f4 303d 4f6b 063d 9086 7dbd 2094 883d
00000220: c45d aa3d 12fe 4abd ea9f d2bb 52b1 933b
00000230: d521 653d 100e ac3c 9e66 593d 431c 3e3c
00000240: ba3b dd3c 9444 25bc 636f d8bc d1bb 3ebd
00000250: dcd8 943d f95b 14bd 3ada 253c d0e2 4ebc
00000260: 78df babb ba35 683d c51a 813d 630e a7bc
00000270: 79ac cebc 0a30 95bc 47ca 9b3d 9095 fe3c
00000280: 7d93 1fbd 50b7 6abd e746 1c3d b91f afbc
00000290: 0769 123d 5e42 023c 7477 c3bc d433 9cbd
000002a0: 69c3 47bd 7859 0fbd 2e0f 07bd 8fb8 ca3c
000002b0: 352a 1abc c86d bd3c 7dc8 243c 8722 36bc
000002c0: 5492 fbbc 8a8b ccbc d6b1 843d 646e 6d3c
000002d0: d96a a43c b921 7b3d 53ad 2fbd 9fca 0b3c
000002e0: a0f6 c3bd b04d a9bb 57d0 66bd 5c1d cebb
000002f0: 7e33 733d 9522 37bd 5f68 9f3d 9846 a2bd
00000300: 107c 843d cb95 2f3d bd50 40bc 0533 2a3c
00000310: 182a 84bc 6268 12bd 58a0 bebd 88bc 4fbc
00000320: 372d 7a3d f436 5dbc 337d c4bb 9bf1 8cbc
00000330: 809c 303b ad93 833d 09e0 f93c 5ff9 163d
00000340: eb61 ca3b 3451 f43c acbf 2ebd

layer_stack.1.weight f4 [211, 211]
0.05445831 0.0083918525 -0.019137956 0.044456568 0.02690923 -0.03689178 -0.04799288 0.037249412
-0.002957374 0.016840827 -0.0032500275 -0.059989925 -0.033892613 -0.06647427 0.03450393 0.012767652
-0.047345906 -0.049501967 0.032916766 0.008939197 -0.057486277 0.008003363 -0.00014780625 0.018030487
0.01974104 0.002868516 -0.061712593 -0.016868828 0.0043849936 0.04407687 0.06128251 0.056516077
-0.05691046 -0.018843459 0.007518128 -0.03985358 -0.032499906 -0.0026926778 -0.013174625 0.049831305
-0.05976026 0.007821398 -0.041409913 -0.030651672 0.021208303 0.030397348 -0.061341085 -0.061748702
-0.04213959 -0.032122128 0.059918385 -0.044975292 0.06733018 -0.00029449465 -0.03540996 -0.024102185
0.05387442 0.0201807 0.05827609 -0.023395982 0.06488746 -0.012817826 0.008864772 0.029010486
-0.038106475 0.036850743 -0.003895453 -0.06698349 0.034376208 -0.06461366 -0.070553675 0.028384704
-0.05759243 -0.029455027 0.040476378 0.069377154 -0.049486972 -0.0061804927 -0.005353842 0.011657026
0.07152395 -0.07472825 -0.009609261 0.022924852 -0.013399322 0.015850343 -0.026107801 -0.012685238
-0.005768029 0.06554628 0.04194217 -0.04104143 -0.046045925 0.056247387 -0.02981937 0.046334136
-0.026630512 -0.04220013 -0.009163158 0.023386741 0.047443803 0.02729095 0.053496946 -0.05797639
0.045428175 0.02413253 -0.038366977 0.0010284826 -0.0602527 0.015562069 -0.014142197 -0.024069587
0.020279078 0.062133975 -0.05265516 -0.055051655 0.06748026 0.044037297 1.8364113e-05 0.015849559
0.054451615 -0.034241676 -0.05367321 -0.058835927 0.0020403306 -0.013154403 -0.023142226 0.00787418
0.043725803 0.053371683 -0.014295401 -0.06753907 0.044458743 -0.016823737 -0.063729845 0.035655577
-0.04815823 0.057588942 0.034094106 -0.012651848 0.028589886 0.051978223 -0.04366445 -0.06528594
-0.05894141 -0.018533764 -0.063107096 -0.0025026551 0.009794805 0.06873652 0.026440404 0.056531634
-0.009390674 -0.026649818 0.04846804 -0.042973075 0.063111804 -0.05568201 -0.039135523 -0.05569093
-0.0044108434 -0.050326236 -0.02891734 -0.06308906 0.05853267 -0.07185819 -0.027689356 0.04228793
0.046295293 -0.03179889 -0.0042444756 -0.019849803 0.029766746 -0.025238147 -0.011280637 -0.050653324
-0.049213104 0.042154673 0.042995863 -0.07358835 -0.00052259956 0.047998767 0.01006936 0.034353063
0.0123271 0.036943544 -0.009406976 0.02244088 0.010510153 -0.04224008 -0.051305838 0.058692046
0.017741047 -0.066190876 -0.055611055 0.05705482 0.06019311 -0.06542442 -0.036483616 0.009643711
-0.04154379 -0.0036646195 0.0013625904 0.065059155 -0.012823001 0.03066568 0.004906778 0.065480225
0.007921362 -0.0697116 0.03712306 -0.05001555 -0.014814122 0.055570345 0.034165896 0.055299275
0.02652367 -0.051385816 0.057461604 -0.043165524 -0.027760385 0.044010263 -0.064190835 -0.023044862
-0.010598411 0.07933695 -0.04211206 -0.03935286 -0.027360521 -0.05322987 0.011325619 -0.05171592
-0.029434828 0.074501544 0.026521739 0.018353065 -0.037930075 0.055465575 -0.0031345042 0.016598564
0.014040615 -0.046558756 -0.024493042 0.03483653 0.0740611 0.07115479 0.016330814 0.00882699
-0.024674373 0.013523267 -0.06301319 0.029133108 0.04946473 -0.018254738 0.015573098 0.013903308
00000000: ad0f 5f3d fb7d 093c 34c7 9cbc 1718 363d
00000010: bf70 dc3c d61b 17bd 2f94 44bd d792 183d
00000020: 81d0 41bb c6f5 893c 6afe 54bb ffb7 75bd
00000030: fbd2 0abd a923 88bd fe53 0d3d 6a2f 513c
00000040: c8ed 41bd 93c2 4abd bbd3 063d b675 123c
00000050: bb76 6bbd 8a20 033c 70fc 1ab9 acb4 933c
00000060: f6b7 a13c b6fd 3b3b 58c6 7cbd 7f30 8abc
00000070: feaf 8f3b f389 343d 5f03 7b3d 677d 673d
00000080: f11a 69bd 995d 9abc a15a f63b 823d 23bd
00000090: 9f1e 05bd a377 30bb 62da 57bc e91b 4c3d
000000a0: 2dc7 74bd 5225 003c 719d 29bd 3719 fbbc
000000b0: 09bd ad3c dc03 f93c ca40 7bbd 35ec 7cbd
000000c0: 909a 2cbd 7e92 03bd fb6c 753d 0338 38bd
000000d0: 68e4 893d 6766 9ab9 090a 11bd f271 c5bc
000000e0: 6cab 5c3d ff51 a53c e9b2 6e3d eea8 bfbc
000000f0: b7e3 843d dc01 52bc 8c3d 113c 66a7 ed3c
00000100: 8915 1cbd cef0 163d db4a 7fbb a42e 89bd
00000110: 11ce 0c3d 2b54 84bd 727e 90bd 0a87 e83c
00000120: 0ae6 6bbd ab4b f1bc 8fca 253d 9c15 8e3d
00000130: dab2 4abd bb85 cabb 486f afbb 1cfd 3e3c
00000140: 267b 923d 200b 99bd 2970 1dbc e6cc bb3c
00000150: d488 5bbc 94d8 813c 07e0 d5bc bfd5 4fbc
00000160: bc01 bdbb 213d 863d 8ecb 2b3d 0f1b 28bd
00000170: a79a 3cbd a963 663d c047 f4bc ddc8 3d3d
00000180: 3b28 dabc 0bda 2cbd 1221 16bc 8d95 bf3c
00000190: 6f54 423d 4591 df3c 9d1f 5b3d a778 6dbd
000001a0: e512 3a3d 95b1 c53c b126 1dbd 26ce 863a
000001b0: 89cb 76bd 0cf8 7e3c acb4 67bc 952d c5bc
000001c0: 4f20 a63c 3280 7e3d f0ac 57bd d87d 61bd
000001d0: 1733 8a3d 7460 343d a20c 9a37 efd6 813c
000001e0: a808 5f3d 0041 0cbd 71d8 5bbd f1fd 70bd
000001f0: 11b7 053b 9185 57bc c494 bdbc b402 013c
00000200: d419 333d 449c 5a3d 4237 6abc ed51 8abd
00000210: 5f1a 363d efd1 89bc cb84 82bd 950b 123d
00000220: 9041 45bd 62e2 6b3d 43a6 0b3d b249 4fbc
00000230: 5635 ea3c 1ee7 543d 7fd9 32bd a3b4 85bd
00000240: 8c6c 71bd 1fd4 97bc 4b3e 81bd 9603 24bb
00000250: 647a 203c bcc5 8c3d 8c99 d83c b78d 673d
00000260: 57db 19bc b850 dabc 6c86 463d 8904 30bd
00000270: c340 813d d212 64bd 924c 20bd 2c1c 64bd
00000280: d688 90bb e222 4ebd 0fe4 ecbc d634 81bd
00000290: f4bf 6f3d 632a 93bd cad4 e2bc 1c36 2d3d
000002a0: 22a0 3d3d 8e3f 02bd 3e15 8bbb 0e9c a2bc
000002b0: 64d9 f33c 3bc0 cebc 6cd2 38bc dc79 4fbd
000002c0: ae93 49bd 61aa 2c3d 6e1c 303d 7db5 96bd
000002d0: 10ff 08ba 5b9a 443d f5f9 243c ccb5 0c3d
000002e0: 9bf7 493c 1d52 173d b81f 1abc f0d5 b73c
000002f0: c732 2c3c ef03 2dbd 1226 52bd 1267 703d
00000300: ac55 913c 158f 87bd 6bc8 63bd 51b2 693d
00000310: 0d8d 763d 3dfd 85bd d86f 15bd a800 1e3c
00000320: d229 2abd 1d2a 70bb f298 b23a bc3d 853d
00000330: 9017 52bc 9836 fb3c 0ac9 a03b 7f1a 863d
00000340: 9ac8 013c f5c4 8ebd 5a0e 183d 1bdd 4cbd
00000350: eeb6 72bc bb9d 633d 8af1 0b3d 7e81 623d
00000360: 2b48 d93c ef79 52bd dc5c 6b3d 55ce 30bd
00000370: bf69 e3bc 1b44 343d 7c76 83bd 94c8 bcbc
00000380: f5a4 2dbc 697b a23d b27d 2cbd 7730 21bd
00000390: 2c23 e0bc 9007 5abd 178f 393c 13d4 53bd
000003a0: 4f21 f1bc 4494 983d 1e44 d93c 2b59 963c
000003b0: 915c 1bbd df2f 633d 416c 4dbb b6f9 873c
000003c0: 9c0a 663c 65b4 3ebd a2a5 c8bc c0b0 0e3d
000003d0: 59ad 973d 9ab9 913d 33c8 853c 149f 103c
000003e0: e921 cabc b190 5d3c 0f0d 81bd 8ea8 ee3c
000003f0: 879b 4a3d f68a 95bc 4f26 7f3c b3ca 633c

layer_stack.1.bias f4 [211]
-0.043585952 -0.110773444 -0.07010119 0.09344107 -0.02839891 0.04602282 0.027223729 -0.030760724
-0.0035841137 -0.01656732 0.08007348 0.033632465 -0.009072903 0.051802997 -0.022306263 -0.058121808
-0.0241226 0.0716444 0.09399453 -0.023649465 -0.038486507 0.055213716 0.022252744 -0.015062129
-0.025855355 -0.05323538 0.022922369 -0.038825836 -0.0074864416 0.040778805 -0.030267144 0.06523417
-0.04910019 -0.015431895 0.04243607 -0.013390811 -0.08214537 0.04878498 0.0025336181 0.0500138
-0.016632846 0.04038666 -0.021149032 -0.06285992 -0.08661644 -0.08890089 -0.059757072 0.042066403
0.09413254 -0.034808826 0.015560817 -0.05352071 0.02626258 0.05200337 -0.034481242 0.08965445
0.025584675 -0.035772596 0.0323262 0.015592109 0.06047057 -0.08174792 0.022574762 0.084596746
0.03687008 -0.06873857 0.04185931 0.051376555 0.021493388 -0.0040871305 -0.08436129 0.08837065
0.053968415 -0.006123652 -0.027630841 -0.041031104 0.024283726 -0.021281783 -0.022846676 0.067764744
0.009826466 -0.01971801 -0.03659193 0.036104064 -0.026628952 -0.047733556 0.04983917 -0.054552272
0.021600371 -0.036206502 0.038077205 -0.01349215 0.030510416 -0.028481144 -0.015869765 0.023221685
-0.0367132 0.073526636 -0.0007939557 -0.011099214 0.008068197 -0.02099363 -0.015750501 -0.03712965
0.03331689 0.03207168 0.016971437 0.029710809 -0.08528287 0.022867465 -0.027712021 0.09967662
0.048210803 0.032439195 -0.08872753 -0.040495325 -0.024787819 0.052772176 0.023765793 -0.015905036
0.042376228 0.007718036 -0.1033497 0.0101282215 -0.046236657 -0.03438531 -0.022028815 -0.08051631
0.028047632 -0.07454654 -0.0073679797 0.04684106 0.043794252 -0.009796437 0.061423507 0.0031510072
0.0066413702 0.0015853394 -0.050680015 0.04614075 -0.026298229 -0.073179945 0.04144113 -0.0018058931
-0.017492168 0.009994952 -0.031954534 -0.029839482 -0.04927435 -0.009571612 -0.068839036 0.04905513
-0.04001724 -0.029043822 -0.023140607 -0.03245811 -0.061913244 0.07864972 0.08629664 0.053091347
0.025193429 0.0011716164 -0.016215019 0.051499315 -0.028240101 -0.011536892 -0.040237155 -0.008255325
-0.055271707 -0.006642312 -0.020921184 -0.067314126 -0.021621268 -0.0025737516 -0.026414286 -0.025862552
-0.039815504 -0.0058996123 0.036271907 0.009972043 -0.026355496 -0.012262452 -0.04366984 0.043419037
0.0517241 0.028939484 -0.03523126 -0.06202879 0.0019814346 -0.028589647 -0.021660713 -0.09119153
0.022662057 0.026724618 0.04548169 -0.04632443 0.03211059 0.010175303 -0.049227953 -0.02877919
0.00015616785 -0.073416464 -0.04247109 -0.04630814 -0.010849322 -0.03890402 0.006057823 -0.026296059
0.006033347 0.0050765993 0.010188845
00000000: 2f87 32bd 30dd e2bd 3691 8fbd 085e bf3d
00000010: d5a4 e8bc 6d82 3c3d 4c04 df3c eafd fbbc
00000020: 73e3 6abb 30b8 87bc 91fd a33d 32c2 093d
00000030: 83a6 14bc 612f 543d a0bb b6bc 2211 6ebd
00000040: c29c c5bc 4dba 923d 3480 c03d 86bc c1bc
00000050: 07a4 1dbd c727 623d 634b b63c 26c7 76bc
00000060: 9cce d3bc 580d 5abd b1c7 bb3c d707 1fbd
00000070: d350 f5bb ad07 273d cdf2 f7bc 7e99 853d
00000080: 481d 49bd 0fd6 7cbc 72d1 2d3d 2265 5bbc
00000090: d53b a8bd c2d2 473d 0f0b 263b 45db 4c3d
000000a0: 9b41 88bc 7b6c 253d bc40 adbc b4bc 80bd
000000b0: f663 b1bd ab11 b6bd d5c3 74bd d24d 2c3d
000000c0: 90c8 c03d b393 0ebd ccf2 7e3c 8838 5bbd
000000d0: 9f24 d73c 7c01 553d 343c 0dbd c19c b73d
000000e0: f496 d13c 4986 12bd 7a68 043d 0c76 7f3c
000000f0: fdaf 773d 746b a7bd b5ee b83c 0f41 ad3d
00000100: 1505 173d cfc6 8cbd ab74 2b3d 3970 523d
00000110: e712 b03c 56ed 85bb 9dc5 acbd acfb b43d
00000120: fc0d 5d3d eba8 c8bb 135a e2bc 3b10 28bd
00000130: aaee c63c 2257 aebc f428 bbbc 3ec8 8a3d
00000140: 30ff 203c aa87 a1bc 6be1 15bd dbe1 133d
00000150: f624 dabc 4384 43bd 2824 4c3d 3472 5fbd
00000160: 43f3 b03c 454d 14bd d8f6 1b3d 2e0e 5dbc
00000170: fbf0 f93c 4a51 e9bc 4f01 82bc 673b be3c
00000180: 9560 16bd 2295 963d 7721 50ba 7ad9 35bc
00000190: 7930 043c d5fa abbc 3207 81bc 4315 18bd
000001a0: 4b77 083d 985d 033d af07 8b3c 1564 f33c
000001b0: c9a8 aebd 8d54 bb3c 5204 e3bc 4123 cc3d
000001c0: b178 453d f6de 043d c7b6 b5bd 6dde 25bd
000001d0: d30f cbbc a327 583d 7bb0 c23c 474b 82bc
000001e0: b292 2d3d 94e7 fc3b 02a9 d3bd d7f0 253c
000001f0: a662 3dbd 9cd7 0cbd c675 b4bc bce5 a4bd
00000200: 26c4 e53c dbab 98bd 186f f1bb 69dc 3f3d
00000210: 9a61 333d 3c81 20bc 3797 7b3d 2181 4e3b
00000220: da9f d93b 2acb cf3a d995 4fbd 15fe 3c3d
00000230: 626f d7bc 5edf 95bd 2dbe 293d b8b3 ecba
00000240: bc4b 8fbc dec1 233c c2e2 02bd ee71 f4bc
00000250: e7d3 49bd 40d2 1cbc 7bfb 8cbd 08ee 483d
00000260: 1ee9 23bd 4fed edbc 5f91 bdbc ccf2 04bd
00000270: be98 7dbd 1b13 a13d 4bbc b03d 5076 593d
00000280: 7362 ce3c ec90 993a 5cd5 84bc f2f0 523d
00000290: c957 e7bc 3b05 3dbc b7cf 24bd 5841 07bc
000002a0: 9664 62bd c0a7 d9bb e762 abbc fddb 89bd
000002b0: 161f b1bc 63ac 28bb c662 d8bc b4dd d3bc
000002c0: 9515 23bd 8951 c1bb da91 143d c861 233c
000002d0: 7be7 d7bc 74e8 48bc 25df 32bd 29d8 313d
000002e0: a6dc 533d 7f12 ed3c a74e 10bd e711 7ebd
000002f0: f5da 013b d634 eabc cf71 b1bc a0c2 babd
00000300: c7a5 b93c 96ed da3c 024b 3a3d afbe 3dbd
00000310: 6586 033d 50b6 263c 40a3 49bd 56c2 ebbc
00000320: fdc0 2339 5f5b 96bd 2af6 2dbd 9bad 3dbd
00000330: 5bc1 31bc d259 1fbd b480 c63b d56a d7bc
00000340: 62b3 c53b 9a59 a63b 1def 263c

layer_stack.2.weight f4 [1, 211]
-0.10119917 -0.21192604 -0.046441976 0.16182415 -0.21499851 0.044889156 -0.009272298 0.104077496
0.13559859 -0.0067342473 0.12275855 0.1190224 0.0194863 -0.01986013 0.02511257 -0.15425332
-0.010180399 0.055542808 0.14668447 0.08694596 -0.02645263 -0.031092854 -0.07679899 -0.03507785
0.096614964 0.03547228 -0.07829469 0.09328526 0.03448015 -0.088647656 0.022304699 -0.004951806
-0.032649 -0.103031136 0.034682006 0.03658454 -0.08894893 0.06757126 -0.08451716 0.14986151
-0.16732204 0.06834967 -0.072342075 -0.16727367 -0.21914966 -0.1816015 -0.01869353 0.13089336
0.16219884 -0.19437557 -0.06237643 -0.18275683 0.08539907 0.0733117 0.08224789 0.17117022
-0.10228756 0.06986176 -0.0021604954 0.07886205 0.062722266 -0.092539676 -0.04024222 0.118981354
0.08189757 -0.07034703 0.020663358 0.10098691 -0.013724691 -0.109093964 -0.20977281 0.16040595
-0.061546247 -0.028047971 -0.16569625 -0.12966149 -0.06601034 -0.057167746 -0.031265784 0.101836815
-0.063970186 -0.20283596 0.11287576 0.007173936 -0.033695497 -0.12847358 0.040861055 -0.06613299
-0.14748316 0.06415522 0.12201154 0.025731627 -0.104196414 0.09307179 0.11898096 -0.034053013
-0.16219166 0.037245736 -0.111202076 -7.9568345e-05 0.1654175 0.050968707 -0.07994343 0.07567184
-0.037494298 -0.064452305 0.12226865 -0.042761616 -0.20448796 -0.12633388 0.10728966 0.19275741
0.18557099 -0.12187757 -0.09400463 0.080108956 -0.1441167 0.14265521 -0.001263197 -0.051239703
0.03549861 0.040738676 -0.14221263 0.11463348 0.048715204 0.097922176 0.018791564 -0.039631866
0.07726129 -0.07172791 0.07767081 0.059832904 0.059987135 0.03854556 0.08339999 -0.1368531
-0.03430524 0.10262981 -0.100877814 0.013825142 -0.006653489 -0.07814663 0.04401385 0.14051002
0.10260576 0.045093507 -0.090457864 0.05683115 -0.040743034 0.08528279 -0.17810263 0.07970297
0.047970213 0.044267274 -0.09579006 -0.18428391 -0.07922507 0.101099536 0.08913002 0.05153329
0.09554403 0.047654506 -0.14825319 0.009549416 -0.007437441 0.10851028 -0.17408778 0.11220533
-0.048253182 0.06984043 -0.010086845 -0.008181048 -0.11229615 0.06397855 0.057758316 0.056697212
-0.0039490033 -0.06965933 0.1350598 0.083709136 0.05938683 -0.09341639 0.025243845 -0.072891116
0.07963936 0.089096054 0.02467229 -0.122208394 -0.122439586 -0.14605486 0.022655051 -0.11384763
-0.024517743 0.23850709 0.015656777 0.06030922 0.14235426 0.00039720017 -0.037376758 -0.03763438
-0.0022037767 -0.08162023 -0.12476393 0.04906192 -0.098828346 -0.04582858 0.029614717 0.039099813
0.15108387 0.0903369 0.07310141
00000000: 8341 cfbd 2403 59be f139 3ebd 3bb5 253e
00000010: 9228 5cbe b1dd 373d d6ea 17bc 9526 d53d
00000020: 5bda 0a3e f6aa dcbb d668 fb3d 04c2 f33d
00000030: bca1 9f3c b6b1 a2bc e0b8 cd3c 95f4 1dbe
00000040: b0cb 26bc db80 633d 7434 163e b910 b23d
00000050: 30b3 d8bc 71b6 febc ca48 9dbd cbad 0fbd
00000060: 11de c53d 624b 113d f758 a0bd 580c bf3d
00000070: 0f3b 0d3d e78c b5bd 58b8 b63c c242 a2bb
00000080: f5ba 05bd fd01 d3bd b80e 0e3d acd9 153d
00000090: db2a b6bd cd62 8a3d 5517 adbd 4c75 193e
000000a0: 7856 2bbe e9fa 8b3d 1528 94bd ca49 2bbe
000000b0: c568 60be bef5 39be 2c23 99bc e908 063e
000000c0: 7417 263e 640a 47be 6d7e 7fbd 9b24 3bbe
000000d0: b5e5 ae3d 7224 963d 9571 a83d 3f47 2f3e
000000e0: 247c d1bd af13 8f3d 1997 0dbb 6d82 a13d
000000f0: 8874 803d 7185 bdbd 07d5 24bd 7fac f33d
00000100: eab9 a73d 1b12 90bd 3446 a93c 3ad2 ce3d
00000110: 87dd 60bc a86c dfbd afce 56be 7541 243e
00000120: eb17 7cbd dcc4 e5bc 47ac 29be fbc5 04be
00000130: 6e30 87bd ba28 6abd 8d10 00bd d28f d03d
00000140: cd02 83bd 3bb4 4fbe 682b e73d 5613 eb3b
00000150: 4a04 0abd 948e 03be ec5d 273d bc70 87bd
00000160: d305 17be d063 833d 30e1 f93d 22cb d23c
00000170: ee64 d5bd 6c9c be3d 4aac f33d 2c7b 0bbd
00000180: 9215 26be fc8e 183d eabd e3bd eedd a6b8
00000190: 3563 293e 90c4 503d 62b9 a3bd d6f9 9a3d
000001a0: 9f93 19bd 92ff 83bd fc67 fa3d ce26 2fbd
000001b0: 4b65 51be ab5d 01be aeba db3d 3362 453e
000001c0: 5206 3e3e f39a f9bd 8085 c0bd 2a10 a43d
000001d0: 5493 13be 3514 123e dc91 a5ba b9e0 51bd
000001e0: fe66 113d 99dd 263d 30a0 11be f5c4 ea3d
000001f0: 9889 473d 6c8b c83d c4f0 993c 0655 22bd
00000200: 2b3b 9e3d 15e6 92bd e011 9f3d 5913 753d
00000210: 12b5 753d f3e1 1d3d 9dcd aa3d 3823 0cbe
00000220: a783 0cbd 942f d23d 0799 cebd d982 623c
00000230: 8305 dabb 570b a0bd de47 343d dce1 0f3e
00000240: f822 d23d f8b3 383d f941 b9bd c8c7 683d
00000250: 2be2 26bd bea8 ae3d 8960 36be 503b a33d
00000260: 6a7c 443d 9a51 353d 942d c4bd ecb4 3cbe
00000270: c140 a2bd 460d cf3d cd89 b63d 9214 533d
00000280: 97ac c33d 5f31 433d afcf 17be 2775 1c3c
00000290: c7b5 f3bb a33a de3d 1144 32be e8cb e53d
000002a0: 21a5 45bd 8008 8f3d 4b43 25bc cd09 06bc
000002b0: 86fb e5bd 3007 833d fc93 6c3d 563b 683d
000002c0: a466 81bb 8da9 8ebd 1e4d 0a3e b26f ab3d
000002d0: 9b3f 733d 1851 bfbd 2ecc ce3c f047 95bd
000002e0: f619 a33d fe77 b63d 8b1d ca3c 6548 fabd
000002f0: 9bc1 fabd 688f 15be 1697 b93c f228 e9bd
00000300: 6fd9 c8bc 343b 743e a442 803c cd06 773d
00000310: 51c5 113e 4e3f d039 5f18 19bd 8226 1abd
00000320: 3d6d 10bb 8228 a7bd 3b84 ffbd 27f5 483d
00000330: 8466 cabd c0b6 3bbd 909a f23c 2027 203d
00000340: bbb5 1a3e 8d02 b93d 31b6 953d
